Chatbot/data/data.pth (torch, 2986 bytes, 6 tensors)

l1.weight f4 [8, 10]
00000000: fa78 8bbd 27cb 9abe 8468 003e bd6f 01be
00000010: f752 b83b e866 443d c690 1a3e 88c8 8bbe
00000020: 70c8 c73d 2ca1 783e fe68 56bd b2b2 73be
00000030: f260 cebd 9359 ee3e e665 f7bd 2680 0fbe
00000040: dda6 073f 2a75 72be 5645 74be 9f9e e83e
00000050: 9642 babe 3b14 9abe 0f42 303f e8cb 083f
00000060: 1868 063f 67b8 80bd dedf 033f f957 1e3f
00000070: 473f babe af3a f53e 22fa e9be b1f5 96be
00000080: f020 093f 0845 af3e cd6c a63e 3d07 26be
00000090: 51ab 7f3e 3814 ff3e dff9 e9be 338b da3e
000000a0: 8d64 e9be fc43 13be b119 0e3f 4cc5 063f
000000b0: 52a1 003f eabf 9fbe 7b05 3b3f 93db 0a3f
000000c0: c02d a7be bb16 193f 327c 4cbe 26bb 53be
000000d0: a9e9 cb3e 8136 95be 15cb a03e 541c 4cbe
000000e0: aad2 2c3f c9c5 5fbe 6e18 403c 8061 0a3b
000000f0: 2055 3a3f ed25 1d3e 311a 0c3f 8751 9c3e
00000100: 4ded c03e ed49 d43e 4b50 0b3e 8532 413e
00000110: 40d1 d93e 69b5 cf3e 6be1 dd3e baa2 243f
00000120: 5c67 70be 88c7 bcbd 38ae 29bd 8dd8 cc3e
00000130: 3b81 89be 9a90 89be 6c83 263f eef9 98be
-0.06810184 -0.30233118 0.1253987 -0.12640281 0.0056251246 0.0479497 0.15094289 -0.2730143
0.09755027 0.24280232 -0.052346222 -0.23798636 -0.100770846 0.46552715 -0.120799825 -0.14013728
0.5298899 -0.23677507 -0.23854575 0.45433518 -0.36378926 -0.3009356 0.688508 0.53436136
0.52502584 -0.06285172 0.5151347 0.61852986 -0.36376402 0.47896335 -0.4569865 -0.29484323
0.53565884 0.34232354 0.32504883 -0.16213699 0.24967696 0.49820113 -0.4569845 0.42684326
-0.45584527 -0.14381403 0.5550795 0.526448 0.50246155 -0.31201106 0.7305524 0.54241294
-0.32652092 0.5980031 -0.19969252 -0.2067686 0.39826706 -0.29143146 0.3140494 -0.19932681
0.6750895 -0.21852793 0.0117245745 0.0021115243 0.7278614 0.15346499 0.54727465 0.3053095
0.37681046 0.4146265 0.13604848 0.18866928 0.42542458 0.40568092 0.43336043 0.643108
-0.23476928 -0.09217745 -0.041425914 0.40008965 -0.26856408 -0.26868135 0.65044284 -0.2987818

l1.bias f4 [8]
00000000: 9e6d 29be 115b 563d 0b41 ba3e b6fa e93e
00000010: 9e60 e93e 1fa4 40bc d36e 4b3f 8897 893e
-0.16545722 0.05233294 0.3637775 0.4569909 0.45581526 -0.0117578795 0.7946598 0.26873422

l2.weight f4 [8, 8]
00000000: 2200 593e cec5 51be 2873 60be 4079 20bf
00000010: b4a5 a7be edca 78be c896 2f3f 6c58 063f
00000020: 00d8 28be f661 653e 74e6 37be 32b3 75be
00000030: ff32 11be 594f 09be 7bf8 c93d cd7d 3c3e
00000040: 7f61 923e e0fc 5abe 3304 e43d d559 9ebe
00000050: 4ca0 b7be f23d 543e 057d 18be 5c9b 173e
00000060: 0e61 d63d 07fd 523f d345 553f 0fae 623f
00000070: 705b 273f 659d fe3e 294f 2d3e c622 02bf
00000080: 2f0a 58be 4510 323f fd5c 063f 5a93 353f
00000090: 8910 1c3f f522 263f fb9d 993e cb4e 1bbf
000000a0: 7c2f dc3d afb6 7abe 2806 76be 4c5b 203d
000000b0: 0d5f 8d3e 86cf 12be edb5 903d 18f9 453d
000000c0: 54a9 1abe 40d8 23bd 3cb7 1fbf e5b0 3fbe
000000d0: 91a9 10bf e3bd ce3d 36b4 6b3f a3ac bb3e
000000e0: c888 9fbd 21d3 aa3e 58fc 0abd 297c 7dbe
000000f0: 580f 0b3d a0f4 773c 8c89 88bd e023 513c
0.21191457 -0.20485613 -0.21918929 -0.6268501 -0.3274361 -0.2429616 0.6858945 0.5247867
-0.16488647 0.2240065 -0.17959005 -0.23994139 -0.1417961 -0.13409175 0.09861847 0.18407364
0.2859001 -0.21385527 0.111336134 -0.3092791 -0.35864484 0.20726755 -0.14891441 0.14805359
0.104677305 0.8241734 0.8330967 0.8854684 0.653739 0.49729457 0.16924728 -0.5083431
-0.21097635 0.69556075 0.5248564 0.70927966 0.6096273 0.6489709 0.30003342 -0.60667104
0.107512444 -0.24483751 -0.24025786 0.039149567 0.2761158 -0.14336976 0.070659496 0.048333257
-0.15103656 -0.040001154 -0.6238897 -0.18719824 -0.5650874 0.10094812 0.92071855 0.3665515
-0.07789761 0.33364204 -0.03393206 -0.24754395 0.03395018 0.015134007 -0.0666686 0.012764901

l2.bias f4 [8]
00000000: 1dc6 ee3e c07c c0be b5b4 fabc 376b 343e
00000010: 3cca e63d 2a8f 45be 9199 e63e 886a 1ebd
0.46635523 -0.37595177 -0.030603746 0.17619024 0.11269042 -0.19292894 0.45039037 -0.038675815

l3.weight f4 [2, 8]
00000000: 6996 3b3f a87b 8abe 3168 1dbe a47b 91be
00000010: 0b8e 0cbf 08b2 683e 9068 583f 2855 cabd
00000020: 1d30 4cbf f111 cfba 6fa1 483e 973f 363f
00000030: dbbf 4d3f e953 5d3e 6fb5 1dbf 1f7a a83e
0.7327638 -0.27047467 -0.15371777 -0.28414643 -0.5490424 0.22724164 0.8453455 -0.098795235
-0.79760915 -0.0015798194 0.19592832 0.7119078 0.80370873 0.2161404 -0.6160497 0.3290567

l3.bias f4 [2]
00000000: b851 d53e 8e1c 82bd
0.4166391 -0.063531026
